model.pth (torch_old, 77051 bytes, 10 tensors)

0.0.weight f4 [16, 1, 5, 5]
0	0xbe1620ac	-0.14660901
1	0xbd4a00d2	-0.04931719
2	0x3e479c64	0.19493252
3	0x3d36f496	0.04466685
4	0xbe34ee65	-0.17669065
5	0xbe3f0828	-0.18655455
6	0xbe3274a4	-0.17427307
7	0xbe3ba612	-0.1832507
8	0xbda88d1a	-0.08230038
9	0xbda77fb0	-0.08178651
10	0xbe1dbd60	-0.15404272
11	0xbe3ebf7d	-0.18627734
12	0xbe3eec22	-0.18644765
13	0xbe303593	-0.17207937
14	0x3d857406	0.0651627
15	0x3dfc0a39	0.12306637
16	0x3dd8d94b	0.1058832
17	0xbe525aa5	-0.2054239
18	0x3d0649ec	0.03278534
19	0x3e41d1ca	0.18927684
20	0xbe040f64	-0.12896496
21	0xbe11755e	-0.14204928
22	0x3deb2f21	0.114835985
23	0xbe2fd66f	-0.17171644
24	0xbd28e32b	-0.04123227
25	0xbc6300d7	-0.013855181
26	0xbdfcc78f	-0.1234275
27	0x3d6fe9a4	0.058572426
28	0x3e0c6215	0.1370929
29	0x3cefda33	0.02927885
30	0xbd527ffb	-0.051391583
31	0x3e49774d	0.19674416
32	0x3d516e4f	0.05113059
33	0x3c442598	0.011971854
34	0xbda060b2	-0.07830943
35	0x3e2e98dc	0.17050499
36	0x3c995b2f	0.018720238
37	0x3d3e467f	0.04645395
38	0x3e251496	0.16121134
39	0x3dfc6c4c	0.123253435
40	0x3e18eeef	0.14934896
41	0x3ee1c302	0.44094092
42	0x3ee68da9	0.45029953
43	0x3e129861	0.1431594
44	0xbe228630	-0.15871501
45	0x3e77dd9d	0.24205633
46	0x3e30af29	0.17254318
47	0x3bdaa723	0.0066727563
48	0x3c7e7d18	0.015532754
49	0x3d08d82c	0.033409283
50	0x3df4315e	0.119234785
51	0x3b829d3b	0.0039860285
52	0xbdb42e89	-0.087979384
53	0xbd8226c2	-0.06355049
54	0x3c46605e	0.012107937
55	0x3d573c2d	0.052547622
56	0xbce7f65d	-0.028315717
57	0x3d0fb728	0.03508678
58	0xbe43ea84	-0.1913243
59	0xbc962aab	-0.018330893
60	0x3d2da33a	0.042391993
61	0xbd5f4ae0	-0.054514766
62	0xbe37af13	-0.1793788
63	0x3e0990a1	0.13434078
64	0x3cb7422a	0.022370417
65	0xbbbcb5ca	-0.0057589756
66	0x3d4a6e9c	0.04942189
67	0xbe28bea4	-0.16478974
68	0x3dbad175	0.09121982
69	0xb8b2778a	-8.509967e-05
70	0x3cd19510	0.025583774
71	0xbe2d977a	-0.16952315
72	0x3e4222cd	0.18958588
73	0xbde005b4	-0.10938588
74	0xbab5ce8c	-0.001387076
75	0xbcaf5104	-0.021400936
76	0x3d474791	0.048652235
77	0x3e53a341	0.20667745
78	0x3dea8db5	0.1145281
79	0x3e11f132	0.14252165
80	0x3e830e93	0.25597057
81	0x3e85388b	0.260197
82	0x3ec910be	0.39270586
83	0x3f0f5434	0.5598786
84	0x3edffb1f	0.43746278
85	0x3dc8809b	0.097901545
86	0x3c95e763	0.01829881
87	0x3e0e2a55	0.13883336
88	0x3e3fa32f	0.18714593
89	0x3f02180d	0.5081795
90	0xbdd86a59	-0.10567159
91	0xbdf44ed4	-0.11929098
92	0xbe9c9fb1	-0.30590585
93	0xbe8e5be3	-0.2780448
94	0x3e82b5e2	0.2552939
95	0xbe798649	-0.24367632
96	0xbe8ada1d	-0.27119532
97	0xbe93a9f1	-0.28840593
98	0xbe3e8a8f	-0.18607543
99	0x3d686888	0.056740314
100	0xbe30e058	-0.1727308
101	0x3df69907	0.120409064
102	0x3dd7df45	0.10540632
103	0x3e43f84b	0.19137685
104	0x3e93593a	0.28779012
105	0xbe96be35	-0.2944199
106	0xbd57ef2f	-0.052718338
107	0x3d9eb225	0.07748822
108	0x3e1e8407	0.15480052
109	0x3eba9d97	0.36448357
110	0xbe9e6902	-0.3093949
111	0xbe41f3bb	-0.18940632
112	0x3c017301	0.007900954
113	0x3ed7eaae	0.42171234
114	0x3ed03fd2	0.4067369
115	0xbe6d36ce	-0.23165438
116	0xbe3d7e33	-0.18505172
117	0x3e2e05ea	0.16994444
118	0x3e68436e	0.22681972
119	0x3ea7c377	0.32766315
120	0x3b52bc88	0.003215583
121	0xbd7b8985	-0.061410446
122	0x3e1e57ef	0.15463232
123	0x3eb471c4	0.35243046
124	0x3de92b72	0.1138524
125	0x3d9329dd	0.07185719
126	0xbd4d1f05	-0.05007841
127	0xbe076b57	-0.1322454
128	0xbd5c827a	-0.05383537
129	0x3e9bbb27	0.30416223
130	0xbd57e7cd	-0.052711297
131	0x3c7cffaa	0.015441814
132	0xbe89b493	-0.2689558
133	0x3e11ef68	0.14251482
134	0x3ea52775	0.32256666
135	0xbe02f832	-0.12789991
136	0xbe88f2f7	-0.26747867
137	0xbe8c06de	-0.2734899
138	0xbc144f34	-0.009052087
139	0x3e7c1331	0.24616696
140	0xbe7f7759	-0.24947871
141	0xbdece3aa	-0.11566861
142	0xbe3debff	-0.18547057
143	0x3e00011d	0.12500425
144	0x3ed070dd	0.40711108
145	0xbe471847	-0.19442855
146	0xbd0d889a	-0.0345541
147	0xbd0fb16d	-0.035081316
148	0x3e31dfde	0.17370555
149	0x3e76799e	0.24069831
150	0xbd94374a	-0.07237108
151	0x3ded01ad	0.11572585
152	0xbc8b21ce	-0.016983893
153	0xbdbcd848	-0.0922094
154	0xbe379e60	-0.17931509
155	0xbe67a54e	-0.22621652
156	0xbe6688bb	-0.22513096
157	0xbeb024ce	-0.3440308
158	0xbd9b022c	-0.075687736
159	0x3dd110a4	0.10208252
160	0x3dc197fa	0.09452815
161	0xbdde603b	-0.10858198
162	0x3c9e9a2b	0.019360622
163	0xbd8d959b	-0.069133006
164	0x3dcfb71c	0.10142347
165	0x3d16f990	0.036859095
166	0xbe1729e8	-0.1476208
167	0xbd8defd3	-0.069305085
168	0x3e825d70	0.25461912
169	0x3ca8c14b	0.020599982
170	0x3eaf5349	0.3424323
171	0x3dfc7e5a	0.12328787
172	0x3e231255	0.15924962
173	0x3d4d1d8c	0.050077006
174	0x3e502841	0.20327856
175	0xbd029a5d	-0.031885494
176	0x3dbe7761	0.093001135
177	0x3e5198a9	0.20468391
178	0x3b1b5d66	0.0023706793
179	0x3e8c07be	0.27349657
180	0x3d38409a	0.044983484
181	0xbe38bcfd	-0.18040843
182	0xbdf2f43e	-0.11862992
183	0x3e7e08bb	0.24808018
184	0x3e4b4bb8	0.19853103
185	0xbe0f1b05	-0.13975151
186	0x3d911f8d	0.07086096
187	0xbdc1cccc	-0.0946289
188	0xbe888077	-0.2666051
189	0x3cb2e8a7	0.021839453
190	0xbe66e588	-0.22548497
191	0xbe8e023e	-0.27736086
192	0xbd354c4a	-0.044262208
193	0xbd3aca70	-0.045603216
194	0x3dea96ce	0.11454545
195	0xbe256430	-0.161515
196	0x3ce584ba	0.02801739
197	0xbe0e89b6	-0.1391972
198	0xbd7fe917	-0.06247815
199	0xbe0ad29a	-0.135569
200	0xbda78121	-0.08178926
201	0x3e2e6ca0	0.17033625
202	0x3e251a10	0.16123223
203	0x3ed2d279	0.41176203
204	0x3eacc3ca	0.33743125
205	0x3ecffbb3	0.4062172
206	0x3ed3f0a4	0.41394532
207	0x3e043be0	0.12913465
208	0x3e92496c	0.2857164
209	0x3e9b43a8	0.30325055
210	0xbd9d6ba6	-0.07686548
211	0xbe5f036e	-0.21778652
212	0xbdc15598	-0.09440154
213	0xbd0a9f0f	-0.033843096
214	0x3db4c650	0.088268876
215	0xbdbe1182	-0.09280683
216	0xbea86aa7	-0.3289387
217	0xbea70a88	-0.32625222
218	0xbe048d9a	-0.12944642
219	0x3d044d79	0.032300446
220	0xbe9f9b0d	-0.31172982
221	0xbd9347e5	-0.07191447
222	0xbddd18b9	-0.10795731
223	0xbde8f57d	-0.11374948
224	0xbd0d299a	-0.034463502
225	0x3cbf5b52	0.023358975
226	0xbd90fc3a	-0.070793584
227	0xbeda8e3d	-0.42686644
228	0xbe9ca949	-0.30597904
229	0xbe41cca1	-0.18925716
230	0x3b41a235	0.0029546146
231	0xbe5f5eab	-0.21813457
232	0xbebe7cd0	-0.372046
233	0xbee8a8ae	-0.45441192
234	0xbe948b0a	-0.29012328
235	0x3e722cdd	0.23649926
236	0xbdee45b2	-0.11634387
237	0xbd21143e	-0.039325945
238	0x3d315b97	0.043300238
239	0x3e600ba2	0.21879438
240	0x3e4c4836	0.19949421
241	0x3edc0fba	0.42980748
242	0x3e9d0fb8	0.30676055
243	0x3ed53029	0.41638306
244	0x3eb1e91d	0.34748164
245	0x3eabfaf3	0.33589897
246	0x3ea6ec6b	0.32602248
247	0x3ef5a49b	0.47977147
248	0x3f01fcae	0.50776184
249	0x3d6682ac	0.056276962
250	0xbdbc6528	-0.091989815
251	0x3d7ec925	0.062203545
252	0x3dca7d9f	0.098872416
253	0x3eb0d113	0.3453451
254	0x3dd88dc9	0.10573918
255	0xbe3abe05	-0.18236549

0.0.bias f4 [16]
0	0x3c85cf88	0.01633431
1	0xbcd37e11	-0.02581695
2	0xbe455362	-0.1927009
3	0xbc2768a5	-0.01021782
4	0xbe33359d	-0.1750092
5	0xbe348274	-0.17627889
6	0xbb23352b	-0.0024903517
7	0x3d297e4c	0.04138021
8	0x3dd4ed26	0.10396795
9	0xbba4e341	-0.0050319736
10	0xbe312ca8	-0.17302191
11	0xbdbc0757	-0.091810875
12	0xbd8090bb	-0.06277605
13	0x3e3dc43c	0.18531889
14	0xbd475b33	-0.04867096
15	0x3e7daa22	0.24771932

2.0.weight f4 [32, 16, 3, 3]
0	0xbd7682fa	-0.060183503
1	0x3d8d4fc0	0.06899977
2	0xbd1c932a	-0.038226284
3	0xbd63ddb1	-0.055631343
4	0xbd8f3fa8	-0.06994563
5	0xbd44fee7	-0.048094656
6	0x3d279b5e	0.040919654
7	0xbd9bb23d	-0.07602356
8	0x3d83a88b	0.064286314
9	0xbcb736c5	-0.022364983
10	0xbca87fe9	-0.020568805
11	0x3e005f64	0.12536389
12	0x3d170838	0.036873072
13	0x3dcc80c2	0.09985496
14	0xbd158d48	-0.03651169
15	0x3d09f353	0.033679318
16	0xbd594bbb	-0.053050738
17	0x3aa3cf0b	0.0012497617
18	0xbd6539f2	-0.055963464
19	0xbd8b9c1b	-0.06816884
20	0x3d2016bc	0.03908418
21	0x3d59b70c	0.053153083
22	0xbd940b79	-0.07228751
23	0xbc4120a3	-0.011787566
24	0x3d54fc07	0.051998165
25	0x3da1f852	0.079086915
26	0xbd35c5e4	-0.044378176
27	0xbd980871	-0.07423485
28	0xbd4334a4	-0.047657624
29	0xbcde3488	-0.027124658
30	0xbd83ee19	-0.06441898
31	0x3d7b1eee	0.061308794
32	0x3d42476d	0.0474314
33	0x3db9364b	0.09043559
34	0x3c295d3a	0.010337168
35	0x3d3c5e6c	0.045988485
36	0x3bd6d8cd	0.0065566064
37	0x3de1a563	0.11017873
38	0xbcccea66	-0.025014114
39	0x3da600f5	0.08105651
40	0x3d57722e	0.052599125
41	0xbdb50b6d	-0.0884007
42	0xbd4856f0	-0.048911035
43	0xbd9cf417	-0.07663744
44	0xbd81b590	-0.063334584
45	0x3da5f552	0.08103432
46	0xbc1aa207	-0.009438044
47	0x3d97b91b	0.07408353
48	0x3d17e2e2	0.037081607
49	0xbcef8af2	-0.029241059
50	0xbdcbe030	-0.0995487
51	0xbd483fb6	-0.048888884
52	0xbddc607c	-0.107605904
53	0xbc849c4b	-0.016187808
54	0xbd2de939	-0.042458747
55	0x3d440e46	0.047865175
56	0xbd82a355	-0.06378809
57	0x3d917301	0.071020134
58	0x3d919fe6	0.07110576
59	0xbd4ddae1	-0.050257567
60	0x3dacc5a6	0.08436136
61	0x3d8207cf	0.063491456
62	0x3d095fd0	0.03353864
63	0xbd9010de	-0.07034467
64	0xbd012acb	-0.03153495
65	0x3cddcbd0	0.027074724
66	0x3d146c77	0.036236253
67	0xbd076c3a	-0.033062197
68	0xbd8fbf59	-0.070189185
69	0x3d35dd8b	0.044400733
70	0x3d7fb769	0.062430773
71	0xbd3f132c	-0.046649143
72	0x3dacffd4	0.08447233
73	0xbd9f5615	-0.07780091
74	0x3c083a59	0.008314692
75	0xbd10d2b9	-0.03535721
76	0xbd28301d	-0.04106151
77	0x3e05935e	0.13044497
78	0x3c7cd078	0.015430562
79	0xbcc64852	-0.024204407
80	0xbc3f3ff3	-0.0116729615
81	0xbd39afde	-0.045333736
82	0xbc44ec2a	-0.0120191965
83	0x3d9aeff9	0.075653024
84	0x3d94a204	0.072574645
85	0x3d5f1300	0.05446148
86	0xbd33de5d	-0.043913234
87	0x3abf510b	0.0014596296
88	0xbe1a5973	-0.15073185
89	0xbdbe2ba8	-0.092856705
90	0xbc0a5468	-0.008442976
91	0x3b39db45	0.0028359455
92	0x3dcb92ad	0.099400856
93	0x3c3f819e	0.011688618
94	0x3d98ff63	0.07470586
95	0xbc88ab05	-0.016683111
96	0x3e06b88f	0.13156341
97	0xbb0b5c30	-0.0021264665
98	0x3c5ee85c	0.0136052035
99	0xbbb55660	-0.0055339783
100	0x3dbbef52	0.09176506
101	0xb74bcb21	-1.21470375e-05
102	0x3d9d8c7c	0.07692811
103	0xbd7fea73	-0.062479448
104	0xbc9e8dc0	-0.019354701
105	0x3d5874a2	0.052845605
106	0xbd6cdfeb	-0.057830732
107	0xbd79f62d	-0.061025787
108	0xbd58a241	-0.052889112
109	0xbd36136b	-0.044452112
110	0xbb5ad206	-0.0033389344
111	0xbd892cfe	-0.06698035
112	0xbd43ad14	-0.047772482
113	0xbc84eac7	-0.016225232
114	0xbd20592e	-0.03914755
115	0xbbd096cc	-0.0063656326
116	0x3d75a67d	0.05997323
117	0x3da524b4	0.08063641
118	0xbd50fc51	-0.051021878
119	0xbc59114c	-0.013248753
120	0xbce99254	-0.028512157
121	0x3d2a9c9e	0.041653268
122	0xbd9b4d1c	-0.07583067
123	0x3b964de5	0.0045869225
124	0xbc48e2b9	-0.012261086
125	0x3c3d27e1	0.011545152
126	0xbd67daa9	-0.056605015
127	0xbcdac19f	-0.026703654
128	0x3c8703e0	0.01648134
129	0x3c2c4f61	0.010516972
130	0x3c075427	0.00825981
131	0x3cbadacb	0.022809407
132	0x3dae959e	0.08524631
133	0x3da1dd8e	0.07903586
134	0x3d707f93	0.058715414
135	0x3cdfe625	0.027331421
136	0xbd88ac19	-0.0667345
137	0xbb2a4f9c	-0.0025987392
138	0xbc90dfaa	-0.017684776
139	0x3d9cc3da	0.07654543
140	0xbb3b2deb	-0.0028561305
141	0x3cfef940	0.031124711
142	0xbd63df81	-0.05563307
143	0x3d8cc257	0.06873005
144	0x3c90d0bf	0.017677663
145	0x3d646caf	0.05576771
146	0xbd960638	-0.07325405
147	0xbd5587a0	-0.052131295
148	0xbd35bea2	-0.044371255
149	0xbd8d0c99	-0.068871684
150	0xbd5e8485	-0.0543256
151	0x3cd8ac66	0.026449393
152	0x3a9d2637	0.0011989538
153	0xbc1afc84	-0.0094596185
154	0x3b96f5ea	0.004606952
155	0xbd8b5ab0	-0.06804407
156	0x3ddb828e	0.10718261
157	0x3dac1643	0.084026836
158	0x3e0a3502	0.13496783
159	0x3d82deaf	0.0639013
160	0xbc114888	-0.00886739
161	0xbceb20b1	-0.028702112
162	0xbcb9f67c	-0.02270054
163	0xbd0ed5db	-0.034871917
164	0x3d67ed48	0.056622773
165	0xbda580b2	-0.08081187
166	0xbca18ef3	-0.019721484
167	0xbd7b9475	-0.061420877
168	0xbb17faad	-0.0023190186
169	0xbc9a73db	-0.018854072
170	0xbcdb0543	-0.026735907
171	0xbd8db449	-0.06919152
172	0xbdbdfd76	-0.092768595
173	0xbe18ea57	-0.14933144
174	0xbe1aaa67	-0.15104066
175	0x3ca7e208	0.020493522
176	0xbd51f5fc	-0.05125998
177	0x3e17a027	0.14807187
178	0x3e1c8d97	0.15288387
179	0x3e9557c9	0.29168537
180	0x3d902e17	0.07040041
181	0x3dbeada9	0.09310467
182	0xbe3e3e02	-0.18578342
183	0x3d547f3c	0.051879153
184	0xbcc3a677	-0.023883088
185	0xbd8e2c7f	-0.06942081
186	0xbe260c14	-0.16215545
187	0xbd45f4a4	-0.04832901
188	0xbd8180ea	-0.063234165
189	0x3d5fcd51	0.054639164
190	0xbc62b986	-0.013838178
191	0xbe156888	-0.14590657
192	0xbbd5c4f5	-0.0065237232
193	0x3ca56ef4	0.020194508
194	0xbe51a23f	-0.20472048
195	0xbe313c5b	-0.1730818
196	0xbda85515	-0.08219353
197	0xbd88c935	-0.06679002
198	0xbcec85b1	-0.028872343
199	0x3c965f8a	0.018356103
200	0x3c6a8911	0.014314906
201	0x3d2e2fed	0.042526174
202	0xbcf5000a	-0.029907245
203	0x3d996278	0.074894845
204	0x3d274acb	0.040842813
205	0xbdf4fdae	-0.11962448
206	0xbdc26de6	-0.09493618
207	0x3bb53e44	0.0055311043
208	0x3cdc3670	0.026881427
209	0xbbe4c642	-0.006981642
210	0x3c916619	0.01774888
211	0x3d525e68	0.051359564
212	0x3cf5a418	0.029985473
213	0xbd373af8	-0.04473397
214	0x3d0c714c	0.034287736
215	0x3dd5c793	0.104384564
216	0xbd072878	-0.03299758
217	0x3b6e5a39	0.0036369695
218	0xbd761510	-0.06007868
219	0xbc5f535e	-0.013630716
220	0xbdda6dee	-0.10665499
221	0xbdbe4b73	-0.092917345
222	0xbc95d685	-0.018290767
223	0x3e3d83be	0.18507287
224	0x3da97e1d	0.08276007
225	0xbe1c340a	-0.15254226
226	0xbe236eb3	-0.15960197
227	0xbda68ddb	-0.081325255
228	0x3ded68ad	0.11592231
229	0x3c2791a6	0.010227596
230	0x3e856265	0.26051632
231	0xbe2fe72d	-0.1717803
232	0xbdf20d69	-0.11818964
233	0xbd0e1f2a	-0.03469769
234	0xbd1ca9a4	-0.03824772
235	0x3e1c2d70	0.15251708
236	0x3c5f4fee	0.013629897
237	0x3d6c91dd	0.057756294
238	0x3d993f1f	0.074827425
239	0xbdb2be26	-0.08727674
240	0x3d88fb83	0.06688597
241	0xbdf79cc6	-0.12090449
242	0xbdf750e1	-0.12075973
243	0xbbb61312	-0.0055564726
244	0xbd67051e	-0.056401365
245	0x3d721be6	0.059108637
246	0xbbda1f06	-0.0066565303
247	0x3d49c0db	0.049256187
248	0x3e516429	0.20448364
249	0xbd76bf4d	-0.060241032
250	0x3dcdc2a5	0.10046891
251	0x3dca54ad	0.09879432
252	0x3d82e528	0.06391364
253	0xbc94d75d	-0.0181691
254	0x3d1dc61e	0.038519017
255	0x3d48d5a2	0.04903186

2.0.bias f4 [32]
0	0x3d35e938	0.044411868
1	0xbc20a7d0	-0.009805635
2	0xbda3c84d	-0.07997189
3	0x3d808cb3	0.06276836
4	0x3c646989	0.013941177
5	0xbd79eca4	-0.061016694
6	0x3cf6502c	0.030067526
7	0xbd0acfb3	-0.033889484
8	0xbd04577b	-0.03230999
9	0xbd9d2a95	-0.076741375
10	0xbc1e30ec	-0.009655219
11	0xbae24dbb	-0.0017265597
12	0xbe025025	-0.12725885
13	0xbd57ece6	-0.05271616
14	0x3d03a1a8	0.03213659
15	0x3d2f2436	0.042759143
16	0xbc6be348	-0.01439745
17	0xbce29bc6	-0.02766217
18	0x3d42060c	0.047369048
19	0xbd828f83	-0.06375029
20	0xbdb9445f	-0.09046244
21	0xbdafef2b	-0.085905395
22	0x3d165b55	0.036708195
23	0x3d493bda	0.049129345
24	0x3dbe9c5c	0.09307167
25	0xbb5cf90f	-0.0033717786
26	0x3d2cb3e6	0.042163752
27	0xbd63e940	-0.055642366
28	0xbdc48597	-0.09595793
29	0xbd0e8387	-0.034793403
30	0xbd6c89ed	-0.057748724
31	0x3e0bd752	0.13656357

4.0.weight f4 [8, 32, 1, 1]
0	0x3dd2db18	0.10295695
1	0x3e7dc1ff	0.24781035
2	0xbe3457ed	-0.17611666
3	0x3d7e74f8	0.06212327
4	0xbe034dd2	-0.12822655
5	0xbc2708d3	-0.010194975
6	0xbec25524	-0.37955582
7	0xbddae2ff	-0.10687827
8	0xbde08c65	-0.10964278
9	0x3dccc087	0.09997659
10	0x3e25ba01	0.16184236
11	0x3e12539c	0.14289707
12	0xbc92e35e	-0.017930683
13	0xbde8485c	-0.113419265
14	0xbe986940	-0.297678
15	0xbe9f023c	-0.31056392
16	0xbe8e52ef	-0.27797648
17	0xbe2614a6	-0.16218814
18	0xbddc90dc	-0.10769817
19	0x3e3e7383	0.18598752
20	0xbd52d6e4	-0.051474467
21	0xbe2212bf	-0.15827464
22	0xbeae519b	-0.34046635
23	0x3e159570	0.14607787
24	0xbe57b469	-0.21064915
25	0xbe03a18b	-0.12854593
26	0x3b7cc8ba	0.003857179
27	0x3eb7f680	0.35930252
28	0xbc9d2dab	-0.019186815
29	0x3e68bcc3	0.22728257
30	0xbea30173	-0.31837043
31	0x3f598cc4	0.84980416
32	0x3dc68a86	0.0969439
33	0x3e8210cd	0.25403443
34	0xbe5af31d	-0.21381803
35	0xbc83abb5	-0.016073087
36	0x3e6a23a3	0.22865157
37	0xbe949014	-0.29016173
38	0xbdc732d4	-0.097264916
39	0xbe97319d	-0.2953004
40	0x3e5fb904	0.21847922
41	0x3e86d146	0.26331538
42	0x3eba66a7	0.36406443
43	0x3f212112	0.62941086
44	0x3e91a098	0.28442836
45	0xbd94bb68	-0.072623074
46	0x3ec154a3	0.37759885
47	0xbd3827f7	-0.04495999
48	0xbdb617e5	-0.08891276
49	0xbe2f05bb	-0.1709203
50	0x3d1270d3	0.03575213
51	0xbe51e099	-0.20495833
52	0x3dd1f526	0.102518365
53	0xbe822ba6	-0.25423926
54	0xbe2a7e2d	-0.16649695
55	0x3d564f42	0.05232168
56	0xbe834888	-0.25641274
57	0x3ea4aace	0.32161564
58	0x3e88a7db	0.26690564
59	0x3ec3893a	0.38190633
60	0x3d405648	0.046957284
61	0x3da3c55c	0.07996628
62	0x3e9ca9a4	0.30598176
63	0xbc8bcc8a	-0.017065305
64	0xbdfe8c28	-0.124290764
65	0x3eeaec1e	0.45883268
66	0xbea4da87	-0.32197973
67	0x3e2daaa7	0.1695963
68	0x3efd8914	0.49518645
69	0xbe258730	-0.16164851
70	0x3eed86ae	0.46391815
71	0x3ed5ce05	0.41758743
72	0xbe8eb73b	-0.2787417
73	0xbec58115	-0.38575044
74	0x3ea9f066	0.33191222
75	0x3e60e9e9	0.2196423
76	0xbeb4dc16	-0.35324162
77	0x3d97197c	0.07377908
78	0x3e773201	0.24140169
79	0x3f19107a	0.59790766
80	0x3c82ffcc	0.015991114
81	0x3cff0aaf	0.031133024
82	0xbd9ce884	-0.07661536
83	0x3d9d652f	0.07685315
84	0xbe92fe74	-0.28709757
85	0xbbb32bcd	-0.005467868
86	0x3edb7f7b	0.42870697
87	0x3edb28c7	0.42804548
88	0x3efb658c	0.49100912
89	0xbdc01f74	-0.09380999
90	0x3e2fc0e6	0.17163429
91	0xbe3c04f7	-0.18361269
92	0xbed8b784	-0.4232751
93	0xbec44620	-0.3833475
94	0x3c5bd7b5	0.013418128
95	0xbecad78b	-0.3961757
96	0x3da0e913	0.078569554
97	0xbd69a7d3	-0.057044815
98	0xbe163c29	-0.14671387
99	0x3e2e876c	0.17043847
100	0x3dfc42b4	0.1231741
101	0x3cae490a	0.021275062
102	0xbde07f61	-0.109617956
103	0xbde8a426	-0.11359434
104	0xbdba8e22	-0.09109141
105	0xbe01782d	-0.126435
106	0xbe032d8a	-0.1281034
107	0x3de21a97	0.11040228
108	0xbe38f622	-0.18062642
109	0x3dcb0c45	0.099144496
110	0xbc8bc7da	-0.01706307
111	0xbe04f49c	-0.12983936
112	0x3e04f6e0	0.129848
113	0x3dedb9a6	0.11607675
114	0xbd41f96d	-0.04735701
115	0x3def9b23	0.11699512
116	0xbd1b7424	-0.037952557
117	0x3e2d60d0	0.16931462
118	0xbdbaecbd	-0.091271855
119	0x3d53ba36	0.051691256
120	0x3d28e09c	0.04122983
121	0x3d9f88c6	0.07789759
122	0xbe0e5b71	-0.1390207
123	0x3d90c7d1	0.07069362
124	0xbd851643	-0.06498387
125	0x3e258d79	0.16167249
126	0x3d82bfe2	0.06384255
127	0xbe3c9152	-0.1841481
128	0xbbd1f056	-0.006406824
129	0xbdde6c85	-0.10860542
130	0xbd0103c2	-0.031497724
131	0xbdc4908f	-0.09597885
132	0xbdc08012	-0.093994275
133	0xbda26edd	-0.07931302
134	0xbd24b758	-0.040213913
135	0xbe243096	-0.16034159
136	0xbe3b74d1	-0.1830628
137	0xbe2ba258	-0.16761148
138	0x3e5c2a8c	0.21500605
139	0x3e669afd	0.22520061
140	0xbdf0cf66	-0.11758308
141	0xbeb8b7a1	-0.36077598
142	0x3ad765ca	0.0016433534
143	0x3e0cec12	0.13761929
144	0xbd832435	-0.0640339
145	0xbe185cf0	-0.14879203
146	0xbdaa5ffa	-0.08319087
147	0x3de5e661	0.11225582
148	0xbe5d5a20	-0.21616411
149	0xbe68179e	-0.22665259
150	0xbe396014	-0.18103057
151	0x3d4cd063	0.05000342
152	0x3cfd47fa	0.03091811
153	0xbd4d782b	-0.05016343
154	0xbcc6affa	-0.024253834
155	0x3dac2f7a	0.08407493
156	0xbdb5eabb	-0.08882662
157	0x3cb65f76	0.022262316
158	0xbddb284a	-0.10701044
159	0x3f177144	0.59157205
160	0x3e98578d	0.29754296
161	0x3ed71c71	0.42013887
162	0xbe9f65d2	-0.3113237
163	0x3d0e0190	0.03466946
164	0x3df2bffb	0.118530236
165	0xbead03a2	-0.33791834
166	0xbeb1abae	-0.34701294
167	0x3e7fb3df	0.24970959
168	0x3e2cff30	0.16894221
169	0x3e375ca5	0.17906435
170	0x3e21698c	0.15762919
171	0x3eadb5dc	0.3392781
172	0xbe511745	-0.20419033
173	0x3f012a81	0.5045548
174	0xbd7f7089	-0.06236318
175	0xbe2de96a	-0.16983572
176	0xbe3b16b7	-0.18270384
177	0xbe774d3d	-0.24150558
178	0x3e2144e1	0.15748931
179	0x3dd7f6b1	0.105450995
180	0x3d38f923	0.04515947
181	0x3e89017e	0.2675895
182	0xbe8de76e	-0.2771563
183	0xbdff3b7b	-0.12462517
184	0x3e234935	0.15945895
185	0x3e21f01a	0.15814248
186	0x3e12f240	0.14350224
187	0x3ee5388c	0.44769704
188	0x3daae409	0.083442755
189	0xbe204dea	-0.15654722
190	0x3bcf1c07	0.00632048
191	0xbe842bef	-0.2581477
192	0xbe073c06	-0.13206491
193	0x3eba7571	0.36417726
194	0xbef2c431	-0.47415307
195	0xbdbb0aeb	-0.09132942
196	0x3ef6aafa	0.4817732
197	0x3e98040a	0.29690582
198	0x3eb33455	0.35000864
199	0xbe81daf6	-0.25362366
200	0xbdc045e8	-0.093883336
201	0xbe3072af	-0.17231248
202	0x3ee45896	0.44598836
203	0xbc84fa8a	-0.016232748
204	0x3e04a578	0.12953746
205	0xbe64541a	-0.22297707
206	0xbd83709e	-0.064179644
207	0x3ec98cc0	0.39365196
208	0xbe4cb67d	-0.19991489
209	0x3e099a57	0.13437782
210	0x3dfd1df5	0.123592295
211	0xbea1e3a0	-0.31618977
212	0xbd9f6356	-0.07782619
213	0xbe96f923	-0.2948695
214	0xbca29960	-0.019848526
215	0x3e1dadb9	0.15398301
216	0xbe3426c9	-0.1759292
217	0x3e309d74	0.17247564
218	0xbc1261a4	-0.008934412
219	0x3e0a2c29	0.13493408
220	0x3e14154a	0.14461246
221	0x3e34317e	0.17597005
222	0xbdca7f81	-0.09887601
223	0x3eeb0b0f	0.45906875
224	0x3d7f660c	0.06235318
225	0x3b045fc0	0.0020198673
226	0x3bc1c660	0.0059135407
227	0x3e2921bb	0.16516773
228	0xbdfc95bc	-0.12333247
229	0x3c1ac820	0.009447128
230	0xbd5f41d4	-0.054506138
231	0xbd853d2f	-0.065058105
232	0x3e0cad6f	0.13738035
233	0x3d81fdca	0.063472345
234	0xbe121126	-0.14264354
235	0xbe1fd17e	-0.15607259
236	0xbe0b61e5	-0.13611563
237	0xbdf597d8	-0.119918525
238	0xbe0998af	-0.1343715
239	0xbdd979a7	-0.106189065
240	0xbd071080	-0.03297472
241	0x3dca2eb6	0.09872191
242	0x3df83efa	0.12121387
243	0xbe20a1b3	-0.15686683
244	0xbda53715	-0.08067147
245	0x3cb94dd0	0.022620112
246	0xbe1ee658	-0.15517557
247	0x3bd3e120	0.006466046
248	0xbe12c5d2	-0.14333275
249	0xbdb44709	-0.088026114
250	0xbd9af399	-0.07565994
251	0xbd2cf920	-0.04222977
252	0x3d3c64d4	0.045994595
253	0x3d57aed4	0.052656963
254	0xbe33a90d	-0.17544957
255	0xbda59d07	-0.08086591

4.0.bias f4 [8]
0	0x3eb0d522	0.34537607
1	0xbe7b6539	-0.24550332
2	0x3d219578	0.039449185
3	0xbc9a7d20	-0.018858492
4	0x3dedfd25	0.11620549
5	0xbbcfa592	-0.006336876
6	0xbdc1d47a	-0.09464355
7	0x3c792fa0	0.015209109

6.0.weight f4 [64, 200]
0	0x3c4ef7da	0.012632335
1	0x3d8328b3	0.06404247
2	0x3d7470cf	0.059677895
3	0xbd5f4898	-0.05451259
4	0xbdea9847	-0.11454826
5	0xbdb20cae	-0.08693825
6	0xbdb21079	-0.08694548
7	0xbdddec4f	-0.10836088
8	0xbda31e04	-0.079647094
9	0xbda06fe2	-0.0783384
10	0x3d13f0a8	0.03611818
11	0x3ce9965f	0.028514085
12	0xbbbeb078	-0.0058193766
13	0xbe35bc31	-0.1774757
14	0x3cfac121	0.03060967
15	0x3d61f428	0.055164486
16	0x3ac11a49	0.0014732565
17	0x3e46522f	0.19367288
18	0x3e25cfca	0.16192546
19	0x3c36eca8	0.011164822
20	0x3dab3a5a	0.08360739
21	0x3d7b9678	0.061422795
22	0x3da090fb	0.07840153
23	0x3d1013fe	0.035175316
24	0x3cd5aa3c	0.02608215
25	0x3db07356	0.086157486
26	0x3dd0793e	0.10179375
27	0x3d612b2f	0.054972824
28	0x3d28f80c	0.04125218
29	0x3d216695	0.03940447
30	0x3d015435	0.031574447
31	0x3d508482	0.05090762
32	0xbd77640a	-0.06039814
33	0xbe1f174e	-0.15536234
34	0xbda71681	-0.08158589
35	0x3d93790d	0.07200823
36	0x3d79bbaa	0.060969986
37	0xbdc9cebb	-0.09853884
38	0xbe6aa931	-0.22916104
39	0xbdcb6309	-0.09930999
40	0x3c9650aa	0.01834901
41	0xbe13fd53	-0.14452104
42	0xbe2803c4	-0.16407686
43	0xbd43c861	-0.047798518
44	0x3db8cb50	0.09023154
45	0x3dab6f2c	0.08370814
46	0x3dbe9b48	0.09306961
47	0x3d335fae	0.04379242
48	0x3dd2bd21	0.1028998
49	0xb91b4ca8	-0.00014810509
50	0xbc93f2f0	-0.018060178
51	0x3a0b1db3	0.0005306855
52	0x3dd38ba3	0.10329368
53	0x3de7caf4	0.11318007
54	0x3d656a58	0.05600962
55	0x3d2d6e55	0.04234155
56	0x3de2a9a5	0.110675134
57	0x3d9c7daa	0.07641156
58	0x3d947c4c	0.0725027
59	0x3df3d895	0.11906544
60	0x3c08145c	0.008305635
61	0x3dc1786d	0.094467975
62	0xbe249d16	-0.16075549
63	0x3d441d8e	0.047879748
64	0xbccc5e01	-0.024947168
65	0xbe6361a0	-0.2220521
66	0xbe48f978	-0.19626415
67	0xbe9acbf3	-0.30233726
68	0x3c97aef3	0.01851604
69	0x3cd7c5d9	0.026339458
70	0xbe0e128a	-0.1387426
71	0x3d46df7d	0.04855298
72	0x3d9eff06	0.077634856
73	0x3e15b39e	0.146193
74	0x3c7f0d85	0.015567188
75	0xbd8f5132	-0.06997909
76	0xbd67aae6	-0.056559466
77	0xbcf51639	-0.029917823
78	0x3cf3f8c2	0.029781703
79	0x3c1e11e8	0.009647824
80	0xbd66caed	-0.05634587
81	0x3ce0b0e3	0.027428096
82	0x3bd802c4	0.0065921266
83	0xba9ce3ab	-0.0011969706
84	0xbd1f4d9e	-0.03889238
85	0xbce25807	-0.027629865
86	0xbbc9ce7e	-0.006158649
87	0xbc8c2ebd	-0.01711213
88	0x3d4e504a	0.05036954
89	0x3d67163e	0.056417696
90	0xbd78a6ea	-0.060706057
91	0x3cb1caeb	0.021703204
92	0xbd6dd2a1	-0.0580622
93	0x3d861984	0.065478355
94	0xbcb9d374	-0.022683837
95	0x3cf9b92c	0.030483805
96	0x3c5d708d	0.013515604
97	0x3d682084	0.056671634
98	0xbd3f383c	-0.04668449
99	0x3cdfaeaa	0.027304966
100	0xbd3f16e6	-0.046652697
101	0x3b8b1e9b	0.004245592
102	0x3d62474a	0.055243768
103	0xbbf96975	-0.0076114484
104	0xbda35082	-0.0797434
105	0x3d535411	0.051593844
106	0x3bdc0500	0.0067144632
107	0x3d5288c8	0.051399976
108	0x3d5c98d3	0.053856682
109	0x3d0b2ee6	0.033980273
110	0x3d527a47	0.051386144
111	0x3ce589e1	0.028019847
112	0x3cbe11ac	0.023201786
113	0xbd6e612f	-0.05819815
114	0xbc0b7aab	-0.008513133
115	0x3cb9fd75	0.022703866
116	0x3d99223b	0.07477232
117	0xbcd97883	-0.026546722
118	0x3d4270dd	0.047470916
119	0x3ac5195b	0.0015037464
120	0x3d3c4ce0	0.04597175
121	0x3dd7fa33	0.105457686
122	0x3d77a48b	0.060459655
123	0xbc17d90b	-0.009268056
124	0x3c42d4b0	0.011891529
125	0x3d66b938	0.056328982
126	0x3dc2776e	0.09495436
127	0x3dd7f72f	0.105451934
128	0x3daff2f8	0.085912645
129	0xbcbffd12	-0.023436103
130	0xbd13540c	-0.035968825
131	0x3d2fcc51	0.04291946
132	0xbdce850a	-0.10083969
133	0xbe425580	-0.18977928
134	0xbd83908d	-0.06424055
135	0x3dbd3901	0.09239388
136	0x3dcb3363	0.099219106
137	0xbda778e3	-0.08177354
138	0xbdd6eea4	-0.10494736
139	0x3d26f695	0.040762503
140	0xbdd48fcf	-0.10378992
141	0xbd85b21e	-0.06528114
142	0xbdda52d7	-0.10660332
143	0x3d3d1b37	0.046168532
144	0x3d3897cc	0.04506664
145	0x3da0c9be	0.07850979
146	0x3d8d5e4e	0.06902753
147	0x3db0edea	0.086391285
148	0x3d7b1083	0.061295044
149	0xbd07e0e2	-0.03317345
150	0xbd23dfc9	-0.04000834
151	0xbd27c7bd	-0.04096197
152	0x3d7f3323	0.062304627
153	0x3d54588e	0.051842265
154	0x3d09351d	0.03349792
155	0x3c8cddc7	0.017195595
156	0xbdfc659c	-0.12324068
157	0xbd6c6743	-0.057715666
158	0xbcf6b943	-0.030117637
159	0xbafac1a8	-0.00191312
160	0xba9701ce	-0.0011520924
161	0xbd6b5628	-0.057455212
162	0xbddf9961	-0.109179266
163	0xbd1fdf59	-0.03903136
164	0xbd798eff	-0.060927387
165	0x3d04096f	0.03223556
166	0xbc314b1b	-0.010821129
167	0x3d28f257	0.04124674
168	0x3d1c9949	0.03823212
169	0x3deb9485	0.11502937
170	0xbd8f1a86	-0.06987481
171	0x3b849bbd	0.0040468858
172	0x3d82f396	0.063941166
173	0x3de6729c	0.11252329
174	0x3d70d174	0.0587935
175	0xbc1ed1d4	-0.009693582
176	0xbd684cf2	-0.056714006
177	0x3cdc3b38	0.026883706
178	0x3d1c2ecc	0.038130566
179	0xbb017fc0	-0.0019759983
180	0xbd69e51e	-0.05710327
181	0xbd6d203c	-0.05789207
182	0x3d24ac60	0.040203452
183	0x3c05ba20	0.008162051
184	0x3cc1e2c0	0.023667693
185	0xbad76f40	-0.0016436353
186	0xba998f80	-0.001171574
187	0x3d8f8bcd	0.07009087
188	0x3caa0c68	0.020757869
189	0x3d58510e	0.052811675
190	0x3d052356	0.032504402
191	0x3d6d6dc6	0.057966016
192	0xbd01260d	-0.03153043
193	0xbd4bfe98	-0.049803346
194	0x3d3be4b0	0.04587239
195	0x3d673e6e	0.056456022
196	0xbca2b342	-0.019860867
197	0x3d49f81a	0.049308874
198	0xbcefe538	-0.029284105
199	0xbcf85a60	-0.030316532
200	0xbd5dfa65	-0.054193873
201	0x3d4025ff	0.046911236
202	0xbc03dae6	-0.008047795
203	0xbd3da696	-0.046301447
204	0x3db3e93c	0.0878472
205	0x3b31bb47	0.0027119683
206	0x3c1d49fc	0.009600159
207	0xbd78bc23	-0.060726296
208	0xbd6d4757	-0.057929363
209	0xbda42a0f	-0.080158345
210	0x3dec3dad	0.11535201
211	0x3d5de447	0.05417278
212	0x3c7dd543	0.01549274
213	0xbdc87e66	-0.097897336
214	0xbe22b0f0	-0.15887809
215	0x3dcb402a	0.09924348
216	0x3c74b426	0.014935529
217	0xbda10ae2	-0.07863404
218	0xbc02dd3e	-0.007987319
219	0x3b287685	0.0025705409
220	0xbc2868b0	-0.010278866
221	0xbd1d3cb2	-0.03838796
222	0xbd009172	-0.031388707
223	0xbd9f4493	-0.07776751
224	0x3e11e3c8	0.14247048
225	0xbc816375	-0.015794495
226	0xbd64ac8c	-0.055828616
227	0x3e20d70f	0.15707038
228	0x3d8fbd8f	0.07018577
229	0xbe133ca2	-0.14378598
230	0xbd525bc9	-0.051357064
231	0xbd0b4d21	-0.034009103
232	0x3c8cbb8e	0.017179277
233	0x3bd377c2	0.006453485
234	0xbd10a012	-0.035308905
235	0x3d23ae73	0.03996129
236	0xbd12e022	-0.03585828
237	0x3d4acbf1	0.0495109
238	0x3e232ec4	0.15935808
239	0x3d0d51a8	0.0345017
240	0xbcbd6567	-0.023119641
241	0x3db89cf5	0.09014312
242	0x3e2b8fff	0.16754149
243	0xbcd9da0b	-0.026593229
244	0xbe4002ae	-0.18751022
245	0x3dade3f5	0.08490745
246	0x3d20c411	0.039249483
247	0xbd1e9684	-0.03871776
248	0x3c7cd8ae	0.01543252
249	0x3c6a3cf6	0.014296761
250	0xbe2377e0	-0.15963697
251	0xbe0d287e	-0.13784978
252	0x3c8d68fc	0.017261975
253	0x3d98cbc7	0.074607424
254	0xbdb7887d	-0.0896158
255	0xbe55d146	-0.20880613

6.0.bias f4 [64]
0	0x3dca8c88	0.098900855
1	0x3d9bda8c	0.07610044
2	0x3a39d010	0.00070881937
3	0xbb863b26	-0.0040964065
4	0xbdc16aac	-0.09444174
5	0x3dc38e1f	0.09548592
6	0x3d4071c9	0.046983514
7	0xbd833088	-0.06405741
8	0xbc41dc60	-0.011832327
9	0x3ce14e77	0.027503235
10	0xba5952ec	-0.00082902494
11	0xbd847d0c	-0.06469163
12	0xbd2ed452	-0.042682953
13	0x3e0b8400	0.13624573
14	0x3d695dac	0.056974098
15	0x3d87c56b	0.06629451
16	0xbd4e0986	-0.05030205
17	0x3d2cd75c	0.04219757
18	0x3bce53f2	0.006296628
19	0xbc89438a	-0.016755838
20	0x3d90aca6	0.0706418
21	0x3d862f1e	0.06551956
22	0x3da086bb	0.07838198
23	0xbcb3e092	-0.02195767
24	0x3d007742	0.031363733
25	0x3d9fb108	0.07797438
26	0x3d059c44	0.03261973
27	0x3d83c336	0.06433718
28	0xbd8fd103	-0.07022288
29	0x3cad2b5c	0.02113884
30	0xbc5eb6cc	-0.013593387
31	0x3c1bae2b	0.009501974
32	0xbacd7af2	-0.0015676899
33	0x3d137e07	0.03600886
34	0xbd43ca41	-0.047800306
35	0x3cb22fde	0.02175134
36	0x3d90f812	0.07078566
37	0x3e3cd53b	0.18440716
38	0xbd9ae397	-0.075629406
39	0x3c910521	0.017702641
40	0xbc8f48ce	-0.01749077
41	0xbc0d5890	-0.008627072
42	0xbd1ab60b	-0.037771266
43	0x3d1bb7f7	0.03801724
44	0xbbd27dbf	-0.0064236815
45	0x3b7edeb2	0.003889006
46	0x3d9c7644	0.07639745
47	0x3c992906	0.01869632
48	0xbda2f43f	-0.079567425
49	0x3e184c65	0.14872892
50	0xbd81d6ec	-0.06339821
51	0xbcdfc841	-0.027317168
52	0x3c753947	0.014967269
53	0xbbe79c7a	-0.007068214
54	0x3d98d65c	0.07462761
55	0x3bab12d3	0.00522075
56	0x3c9fe37b	0.01951765
57	0x3deaa616	0.1145746
58	0x3c5eeb27	0.013605869
59	0x3d045c67	0.032314684
60	0x3d2e6605	0.042577762
61	0xbd193232	-0.037401386
62	0x3dfd8d7f	0.12380504
63	0xbc9ecb54	-0.019384064

7.0.weight f4 [10, 64]
0	0x3e8f63f9	0.2800596
1	0xbdadf1e4	-0.084934026
2	0xbe0dbf75	-0.13842566
3	0xbe0fe7e3	-0.14053302
4	0x3d68e471	0.056858484
5	0xbd1b40d4	-0.03790362
6	0xbd7c42c5	-0.061587114
7	0xbda365b7	-0.07978385
8	0xbc80bf2f	-0.015716163
9	0x3e9891a3	0.29798612
10	0xbcacda6e	-0.02110025
11	0xbe4c79a9	-0.19968285
12	0x3bfece76	0.007776077
13	0xbe3a8e19	-0.18218268
14	0x3e44e7b5	0.19229014
15	0xbcb6840b	-0.02227976
16	0x3e08d03a	0.13360682
17	0x3ec21259	0.37904623
18	0xbdad4ee6	-0.08462314
19	0x3e034392	0.12818745
20	0xbe1f8f4d	-0.15582009
21	0xbe789be7	-0.24278222
22	0x3c6af955	0.014341672
23	0xbe8618d7	-0.26190826
24	0xbd90e048	-0.07074028
25	0xbdc802b2	-0.09766139
26	0xbe534301	-0.20631029
27	0xbe8d116f	-0.27552363
28	0xbbca5992	-0.0061752284
29	0x3e2bb4c4	0.16768175
30	0x3eadec6f	0.33969447
31	0x3cc9adfe	0.024619099
32	0x3cfdf842	0.031002168
33	0xbdfd7d95	-0.123774685
34	0xbe4f7e34	-0.20262986
35	0x3e68f38b	0.22749154
36	0x3dac7397	0.084204845
37	0xbd71f843	-0.05907465
38	0xbe021552	-0.12703446
39	0xbcf6f723	-0.03014714
40	0xbd034d9b	-0.032056432
41	0x3ce82615	0.028338471
42	0x3e524098	0.20532453
43	0x3c42fe6f	0.011901482
44	0xbd741629	-0.059591446
45	0x3e1cac4f	0.15300106
46	0xbd6ccb1d	-0.05781089
47	0x3e3d5922	0.18491033
48	0x3dd4965e	0.10380243
49	0x3cfdd89f	0.030987082
50	0x3bbf474a	0.0058373557
51	0xbd72c9e2	-0.05927456
52	0x3dd46e2e	0.103725776
53	0xbe81c711	-0.25347188
54	0x3bd7b074	0.006582314
55	0x3d50d334	0.05098267
56	0x3e3b8675	0.1831301
57	0xbdc542c2	-0.09631874
58	0xbe8c93d5	-0.27456537
59	0x3e5f2205	0.21790321
60	0x3e41fba6	0.18943653
61	0xbd8d9794	-0.06913677
62	0xbe3bd394	-0.1834243
63	0xbdbe4f85	-0.09292511
64	0x3e2d51b5	0.169257
65	0xbdb41662	-0.08793332
66	0xbe237026	-0.1596075
67	0x3c90a161	0.017655076
68	0xbd73a096	-0.05947932
69	0x3e4d033b	0.20020764
70	0x3c135e7a	0.008994693
71	0xbd83ec3d	-0.06441543
72	0x3def1a7e	0.11674975
73	0xbe6bee0f	-0.23040031
74	0x3d5abb2b	0.053401154
75	0xbde68e1d	-0.11257575
76	0xbc9f3991	-0.01943663
77	0x3ea2d5bd	0.31803694
78	0xbd51edd0	-0.051252186
79	0x3eeace1e	0.4586038
80	0xbd83e905	-0.06440929
81	0xbea9eae1	-0.3318701
82	0x3d988780	0.074477196
83	0xbdbd41aa	-0.0924104
84	0xbe841f33	-0.25805053
85	0xbcd3065e	-0.025759872
86	0x3da97c19	0.08275623
87	0x3dc6854d	0.09693394
88	0xbe7db5e3	-0.24776416
89	0x3e7570e7	0.2396885
90	0x3e0d6801	0.13809206
91	0xbd3b2a8d	-0.045694876
92	0xbe83d49d	-0.2574815
93	0xbc9937f0	-0.01870343
94	0x3ccc4310	0.024934322
95	0x3e8b0c26	0.27157706
96	0xbd13534b	-0.035968106
97	0xbe88146b	-0.26578078
98	0x3e372b74	0.1788767
99	0x3e8433ff	0.2582092
100	0xbdd7b551	-0.1053263
101	0x3ed2002d	0.4101576
102	0x3dbe74d0	0.09299624
103	0xbdc2b000	-0.095062256
104	0x3ddd3641	0.10801364
105	0xbdf55a74	-0.11980143
106	0xbe6ca917	-0.23111378
107	0xbe9e5dd5	-0.30930963
108	0xbe94c54e	-0.29056782
109	0xba08e27a	-0.0005221736
110	0xbd921404	-0.07132724
111	0xbeeed68d	-0.46648064
112	0x3e57c0ec	0.21069688
113	0x3cc96647	0.024584902
114	0x3ced8c49	0.028997557
115	0xbdd7708b	-0.10519513
116	0x3b011e69	0.0019701964
117	0x3e99d3a7	0.3004429
118	0x3d31f98d	0.04345088
119	0xbd217fe1	-0.039428595
120	0xbe3c3af6	-0.18381867
121	0x3e2a4eec	0.16631669
122	0xbe133369	-0.1437508
123	0xbdc120ad	-0.094300605
124	0xbd584a8c	-0.05280547
125	0xbe33d418	-0.17561376
126	0x3ecbb53c	0.39786708
127	0x3c645316	0.013935825
128	0x3ea6061e	0.32426542
129	0x3dece0b8	0.11566299
130	0x3ca81032	0.020515535
131	0xbe241f6d	-0.16027613
132	0xbd9577bb	-0.072982274
133	0xbe70fcf6	-0.23533997
134	0x3e6161bb	0.22009937
135	0xbd9ecfa8	-0.07754451
136	0xbdf194e8	-0.1179598
137	0xbcb339ea	-0.021878202
138	0xbcf8d168	-0.03037329
139	0xbe0e9acf	-0.13926242
140	0x3ae61c74	0.0017556087
141	0x3e0f9dd0	0.14025044
142	0xbe56f3e1	-0.2099147
143	0x3e561148	0.2090503
144	0xbe09f04f	-0.13470577
145	0xbce176fa	-0.027522553
146	0x3c8c0eb2	0.017096851
147	0x3dce4cd0	0.100732446
148	0xbdbffcf6	-0.0937442
149	0xbed09260	-0.40736675
150	0x3e9c433f	0.30520055
151	0x3e745504	0.23860556
152	0x3e44b5d4	0.19209987
153	0x3e4b8269	0.19873966
154	0x3d164364	0.036685362
155	0x3eca925d	0.3956479
156	0x3e8f71ed	0.28016606
157	0x3e2c17ca	0.1680595
158	0xbe317031	-0.17327954
159	0xbd91f0ba	-0.07125993
160	0x3e42b60a	0.19014755
161	0xbe412376	-0.18861184
162	0x3ee3832e	0.4443602
163	0x3d87fc63	0.06639936
164	0x3ce5db65	0.028058717
165	0xbe11498a	-0.14188209
166	0xbe963f4e	-0.29345173
167	0xbe067fb3	-0.13134651
168	0x3d5bfaa7	0.053705838
169	0x3df73993	0.12071528
170	0xbe414514	-0.18874007
171	0x3c96c7b8	0.01840578
172	0xbe23ad44	-0.15984064
173	0xbb51b3f7	-0.0031998137
174	0x3e4a700d	0.19769306
175	0x3cb186e6	0.02167077
176	0xbdb718af	-0.08940255
177	0x3cec0fe0	0.028816164
178	0xbdf1b8a1	-0.11802793
179	0xbd8eccbb	-0.06972643
180	0xbc1221da	-0.008919204
181	0xbe1b26a5	-0.1515146
182	0x3ddcdd72	0.10784425
183	0xbdb92d3c	-0.09041831
184	0x3dd8e89f	0.10591244
185	0xbe47a3bd	-0.19496055
186	0xbe2126d5	-0.1573747
187	0x3e0c8c9c	0.13725513
188	0xbd2075b6	-0.039174758
189	0x3d67c74e	0.056586556
190	0x3e2f5785	0.1712323
191	0x3bb95fc1	0.0056571667
192	0xbe0b9cba	-0.13634005
193	0x3e5491a8	0.20758688
194	0x3e06078f	0.13088821
195	0x3eb4dc5f	0.3532438
196	0x3f04c197	0.51857895
197	0xbec3e9e8	-0.38264394
198	0x3d11bd80	0.035581112
199	0x3d233644	0.039846674
200	0x3ddaeea6	0.1069005
201	0xbe19d0e6	-0.15021095
202	0x3b8de199	0.004329872
203	0x3e44e3ac	0.19227475
204	0x3d9f2920	0.07771516
205	0xbe80429f	-0.25050828
206	0xbe1f68bc	-0.15567297
207	0xbd6bdc18	-0.057582945
208	0xbe17247c	-0.14760011
209	0xbe5f4ead	-0.21807356
210	0x3d986b81	0.0744238
211	0x3d24604d	0.040130902
212	0xbe3ad2d6	-0.1824449
213	0x3e2a773b	0.16647045
214	0x3c334c9b	0.010943557
215	0x3e5dda49	0.216653
216	0xbde90b09	-0.11379058
217	0x3ce2f981	0.027706863
218	0x3e9655f1	0.29362443
219	0xbd9dce52	-0.07705368
220	0x3d6f717f	0.058457848
221	0xbcf9e62a	-0.030505259
222	0xbec24f2a	-0.37951022
223	0xbd9e7638	-0.07737392
224	0xbce7a9e8	-0.02827926
225	0xbe5f4e41	-0.21807195
226	0x3c5bd532	0.013417529
227	0xbe83810d	-0.25684395
228	0xbe4a57ca	-0.19760051
229	0xbe9aa83f	-0.30206487
230	0xbd190af6	-0.03736397
231	0xbdb44389	-0.08801944
232	0xbde11b53	-0.1099154
233	0x3de14067	0.10998612
234	0x3e69f9ce	0.22849199
235	0xbe42ca04	-0.19022375
236	0x3d8e67ff	0.069534294
237	0xbce4536b	-0.027871808
238	0xbde278e4	-0.11058214
239	0xbc94d9af	-0.018170206
240	0x3e96c0b1	0.29443887
241	0xbdb6b461	-0.08921123
242	0xbda495e3	-0.08036401
243	0xbd5a91e1	-0.053361777
244	0x3e13bcfc	0.1442756
245	0x3dbf9237	0.0935406
246	0xba00399d	-0.00048913975
247	0x3ce34c37	0.027746303
248	0xbd85dd5b	-0.06536361
249	0xbe37c426	-0.17945918
250	0x3e870c8d	0.26376763
251	0xbe2c5e21	-0.16832782
252	0x3e3dd4c6	0.18538198
253	0x3e50bf38	0.20385444
254	0x3d4049ad	0.046945263
255	0xbd8f1c5f	-0.06987833

7.0.bias f4 [10]
0	0x3d359b2d	0.04433744
1	0x3e70e682	0.23525432
2	0xbd8cb738	-0.06870884
3	0xbcccc9a6	-0.024998497
4	0x3e04127c	0.12897676
5	0x3d14a1a4	0.036286965
6	0xbc96e3e0	-0.018419206
7	0x3d728829	0.059211884
8	0x3d079770	0.033103406
9	0x3d8eeb74	0.06978503
